checkpoint_critic.pth (torch_old, 424140 bytes, 7 tensors)

fcs1.weight f4 [256, 24]
000000 4d cd b8 3b 43 89 9d 3f 7c 5f d6 bd 7f ad 12 3e
       0.005639708 1.2307514 -0.10467431 0.14323996
000010 04 e4 67 bb f9 01 07 3e 8b 9e 6b bb d9 f1 ef 3d
       -0.003538371 0.13184346 -0.0035952653 0.11716051
000020 ef ef 89 3d 45 a8 b7 3f 34 26 bd bd fc 37 d6 bc
       0.06735217 1.4348227 -0.09235802 -0.026149742
000030 36 da 99 bd 16 6f 57 3f f0 5d 1f bd a1 63 03 bd
       -0.075123236 0.8415388 -0.038907945 -0.032077435
000040 a4 77 fb 3e 5f 8d f6 3f 1b 13 27 be b6 a0 46 bd
       0.49114716 1.9261893 -0.16315882 -0.04849311
000050 84 1b 8f 3f bb fa cb be 85 62 fd bd 92 49 86 bd
       1.1180272 -0.3983973 -0.12372307 -0.06557001
000060 09 3c 92 3e 11 ac 2c 3f 58 ca 35 3d 8f c0 25 3e
       0.28561428 0.6745005 0.044382423 0.16186737
000070 2b 58 14 bf 2a 9d db bf df c4 99 3d 17 65 65 3e
       -0.57947034 -1.7157338 0.07508253 0.22401844
000080 36 c5 df 3e 08 d0 4b 3f 89 45 a8 bc 31 41 92 3e
       0.43705148 0.79614305 -0.02054097 0.28565362
000090 9c 49 16 bf f6 8d ca bf 12 35 90 bc 2d 8d b8 3e
       -0.5870607 -1.5824573 -0.01760343 0.3604521
0000a0 d7 82 68 3f 81 a2 40 3f 0a 68 ad 3d 1a f2 ba 3e
       0.90824646 0.7524796 0.084671095 0.36512834
0000b0 b4 47 3b bf b9 90 84 bf a4 b3 26 3b ac 7a cc 3e
       -0.73156285 -1.0356666 0.0025436664 0.3993734
0000c0 09 ee 1d 40 da 18 37 3f 3d f8 ab bd 7a ad 95 bc
       2.4676535 0.71522295 -0.08396957 -0.018271197
0000d0 30 8a 37 3e 9a c4 16 bd bd 43 9d bd 3c 5d ff 3c
       0.17923808 -0.036808588 -0.07678936 0.031172387
0000e0 fb 36 8c 3f 91 ac 7f 3f e1 51 25 bd b8 82 ad 3e
       1.0954279 0.9987269 -0.04036129 0.33888793
0000f0 e2 61 40 3e 31 03 04 bf a4 28 27 3c 12 a1 7b 3e
       0.1878734 -0.5156737 0.010202561 0.24573162
000100 5c 5a 27 3f 2d 59 2b 3f 13 61 de 3d 92 03 ad 3f
       0.6537225 0.66932946 0.10858359 1.3516715
000110 30 7b 3e be 7d d0 1a c0 bf d5 9e 3d 32 e3 a2 3f
       -0.1860168 -2.418975 0.077556126 1.2725585
000120 8e 48 d3 3c 0f ef 4f bf 66 85 bb 3b 33 50 8a 3e
       0.025791433 -0.8122415 0.0057226894 0.27014312
000130 04 11 5b bf 89 99 81 3f d5 52 ee 3c 5f 6b 83 3e
       -0.8557284 1.012498 0.029092232 0.25667855
000140 b6 fe 75 3e 0d 47 0c bf d2 cf 87 bc d2 66 e3 bd
       0.24022946 -0.54795915 -0.016578589 -0.11103596
000150 80 06 36 bf a1 11 2a 3f d4 f2 61 bc 57 a1 21 be
       -0.7110367 0.6643315 -0.013790805 -0.15784203
000160 2a 16 bb 3e a2 73 41 be 9c fe 74 bd f6 f1 8e be
       0.36540347 -0.18891767 -0.059813127 -0.27918977
000170 a2 01 00 40 64 cf df bf 3d 75 73 bd 1e 47 6b be
       2.0000997 -1.7485166 -0.05943798 -0.22976348
000180 e7 c0 01 3f e1 aa d6 be 81 b8 bb bd 93 7c 0c bf
       0.5068497 -0.41927245 -0.09166051 -0.54877585
000190 d8 65 04 be 64 a7 0b bf ff 8a 6f bd 7f 53 0e bf
       -0.12929475 -0.5455229 -0.058482166 -0.55596155
0001a0 44 26 50 3f 15 83 9b be 12 2a c1 3c fe ab 56 3f
       0.8130839 -0.30373445 0.023579631 0.8385619
0001b0 3b a8 96 be 65 f3 f1 bf 0d 09 63 bd 52 7a 67 3f
       -0.29425225 -1.8902403 -0.055428553 0.9042102
0001c0 5c 66 3a 3f bb be ea be ce e0 ea bd 39 73 6a bd
       0.7281244 -0.4584864 -0.11468659 -0.05723879
0001d0 bb 98 20 bf 50 c3 0c bf 6d cc 08 be 6c 5c bb bd
       -0.6273305 -0.54985523 -0.13359232 -0.091484874
0001e0 f7 7a 98 be cf bf 91 3e fa 49 0c bd 47 93 14 bf
       -0.29781315 0.2846665 -0.034250237 -0.5803723
0001f0 05 4e 99 3e 2f c1 40 3f bd 90 f0 3c cd e5 27 bf
       0.29942337 0.75294775 0.029365892 -0.65585023
000200 5a 28 d1 3d 7e 44 67 3e 8d c2 e9 bc 2a 4a d2 3c
       0.102127746 0.22584721 -0.028535152 0.02567013
000210 2f 06 a9 3e 74 ab c6 3e d4 0c 20 3d 13 82 09 3c
       0.3301253 0.38802683 0.039074734 0.0083928285
000220 e5 b6 bc 3e b6 1d b8 bc a6 6d 64 bd 92 40 00 be
       0.36858287 -0.022475105 -0.05576863 -0.12524632
000230 4e c5 42 be 49 d4 60 c0 1a 34 43 3d b4 38 28 be
       -0.19020578 -3.5129569 0.04765711 -0.1642788
000240 9f 8c de bb 2f d1 fc 3e 79 ad a8 3c 52 e8 cb bd
       -0.0067916657 0.49378344 0.02059053 -0.09956421
000250 ee fd fa 3d 9f db ed be e0 ad c5 3a ab d4 c8 bc
       0.122554645 -0.4645662 0.0015081726 -0.02451547
000260 15 5e 49 3e d2 18 04 3f fc f9 6a 3c 77 5b 74 bd
       0.19664796 0.5160037 0.0143418275 -0.05965754
000270 76 42 26 3d e3 5d c8 3d b7 81 15 bc 57 15 ad bc
       0.040590726 0.097835325 -0.009125165 -0.02112834
000280 87 9c bb 3e d5 a9 0a 3f a8 55 27 bb 51 5b 28 3e
       0.36642858 0.54165393 -0.0025533233 0.16441084
000290 24 e3 b1 be 4d 88 40 be 6b 5a b5 3c df c6 4e 3e
       -0.34743607 -0.18801995 0.022137841 0.20193051
0002a0 c2 11 94 3e 9a e6 2a 3f 46 d2 6c bc 61 f2 6a bd
       0.28919798 0.6675812 -0.01445443 -0.057360057
0002b0 7f d7 81 3e 74 8d 58 bf 5f da 85 bd 36 e1 ae bd
       0.25359723 -0.8459084 -0.065357916 -0.08539049
0002c0 05 84 3c 3f da 55 40 3f 67 70 cf bd 73 ef 82 bd
       0.73638946 0.75131 -0.10128861 -0.063933276
0002d0 cb a8 a7 3d 82 10 00 bf 67 90 b9 bd 56 68 02 3c
       0.081864916 -0.5002519 -0.09060746 0.007959446
0002e0 1a c5 77 3f 55 d4 78 3f 94 50 9b bd af a7 65 3e
       0.9678513 0.9719899 -0.075837284 0.22427247
0002f0 a3 8b cf be 0d d6 b6 be ec 4d a0 bd 91 ec 80 3e
       -0.40536222 -0.35710183 -0.078273624 0.25180486
000300 57 ee 77 3f e8 6a a8 3f 10 ec d6 bd 50 ed 0f bd
       0.9684805 1.3157625 -0.10494244 -0.03513843
000310 46 c7 4d 3e b5 9e c5 bd 98 ba d4 bd c6 df 97 bd
       0.20095548 -0.096494116 -0.103871524 -0.07415728
000320 62 1d 32 3f 96 1a bb 3f 62 d1 9b bc 37 26 44 3d
       0.69576085 1.4617488 -0.01902074 0.047888007
000330 23 d3 d4 bc d8 39 1d 3c a4 3e 70 bd 5a 9b 86 3d
       -0.025979584 0.009596311 -0.05865349 0.065726
000340 fb d8 22 3f 6c 47 c0 3f 6b d3 55 bd d3 19 36 3e
       0.63612336 1.5021796 -0.052203577 0.17783289
000350 2c 4e 0e be ed ac b3 bf 47 87 61 bd 50 35 7d 3e
       -0.13897008 -1.4037148 -0.05506065 0.24727368
000360 e6 2b 56 3e 6f eb 03 3f f2 29 fa bc 67 00 9e bd
       0.20915183 0.5153112 -0.03053758 -0.077149205
000370 9b bc a5 3e 10 7f 57 bc f7 93 4b bd a5 bd d0 bd
       0.32370457 -0.013152853 -0.049701657 -0.10192422
000380 0e ff b9 3e ca 5f 07 3f a8 ab 59 bd 0b fe a7 3c
       0.36327404 0.5288054 -0.05314222 0.02050688
000390 a7 f5 8e bd 40 13 49 3e c0 15 23 3d 8e c5 2f bd
       -0.06980448 0.1963625 0.039815664 -0.042913012
0003a0 fc 29 89 3e a2 bc 32 3f fe a7 82 3c ed 24 c9 3c
       0.26789844 0.6981908 0.015949246 0.02455374
0003b0 85 bd c4 be 66 eb cc be 3f ee 14 bd a8 07 cf 3d
       -0.38425842 -0.40023345 -0.03636002 0.10108882
0003c0 e8 f3 30 3f 9a 86 20 3f f5 b8 cb bc 9b 3f e1 bd
       0.6912217 0.62705386 -0.024868468 -0.1099846
0003d0 9b d4 56 be 4c 59 42 bf 38 83 4a ba 48 86 89 bd
       -0.2097954 -0.75917506 -0.00077252416 -0.06715065
0003e0 61 e3 44 3f 74 4a 4c 3f 97 b0 56 3d 2d ad e7 3c
       0.7690945 0.79801106 0.052414503 0.028280819
0003f0 c3 13 ee be 31 a0 5d bf f0 f2 84 bc c4 05 42 3d
       -0.46499452 -0.8657256 -0.016229123 0.04736878

fcs1.bias f4 [256]
000000 c8 72 f5 bf e3 b9 a3 bf b8 eb b2 bf 88 63 c6 bf
       -1.9175653 -1.2791103 -1.3978186 -1.5499125
000010 84 05 8c bf 26 81 7c bf 65 51 f6 bf 70 97 52 c0
       -1.0939183 -0.98634565 -1.924359 -3.290493
000020 c2 0d 78 bf 71 e9 0b c0 6c 17 22 c0 48 5c 30 c0
       -0.9689599 -2.1861231 -2.5326796 -2.7556324
000030 aa 8c 25 c0 21 6f 52 bf 10 93 52 bf 06 7e 1b c0
       -2.5867105 -0.8220082 -0.8225565 -2.4295669
000040 15 8b 91 bf d7 36 35 c0 47 9d 46 3e c4 ec 0a 40
       -1.137057 -2.8314722 0.19395934 2.170701
000050 ed 8b 22 bf a2 c0 48 3f 08 27 48 c0 e9 f0 90 3f
       -0.6349476 0.78418934 -3.1273823 1.132352
000060 20 04 e1 be 34 fe 33 bf a9 bd 41 40 27 20 c4 bf
       -0.4394846 -0.7030976 3.027201 -1.5322312
000070 e0 31 f7 3d 9c af 22 bf f8 51 5c c0 64 20 51 c0
       0.1207006 -0.6354921 -3.442503 -3.267602
000080 61 f7 1e bf 7e f0 3b 3b e3 ef 37 c0 0f 93 ce bf
       -0.6209622 0.002867728 -2.8740165 -1.6138629
000090 48 91 f9 bf 20 25 af bf 90 1e 2a c0 05 4b 9a 3f
       -1.9497461 -1.3683205 -2.6581154 1.2054144
0000a0 aa 3c 1b c0 1c e8 e4 3e 05 6f e9 bf 4a 10 64 bf
       -2.4255776 0.44708335 -1.8237005 -0.89087355
0000b0 ff ed ab be f2 9d 4b c0 e2 74 39 c0 b0 30 2b 40
       -0.33580014 -3.1815152 -2.897759 2.6748466
0000c0 90 f0 fe 3e 23 22 30 be da b3 00 40 01 5a 65 c0
       0.4979291 -0.17200522 2.0109773 -3.5836184
0000d0 f4 2f a2 be 79 28 75 c0 e6 b3 2a c0 0f b9 ce 3d
       -0.3167721 -3.8305953 -2.6672301 0.10093891
0000e0 e6 3c 42 c0 93 c4 33 c0 c6 db 52 bf bb 0e 3c c0
       -3.034967 -2.808873 -0.823666 -2.938399
0000f0 fd b2 e0 3f fd b5 80 bf 1b 3c 6a 3c 83 d9 3b c0
       1.7554623 -1.0055538 0.014296557 -2.9351509
000100 a3 d4 03 3e a6 8c 80 be d3 fa 90 3f a4 01 43 c0
       0.12874083 -0.25107306 1.1326545 -3.0469751
000110 52 8b 00 3e 61 5e cc bf ae 1e e1 bf 07 3e 9d bf
       0.12553146 -1.5966302 -1.7587488 -1.2284554
000120 ea 73 fd 3f e9 a9 d4 3f fb 53 24 c0 79 11 53 c0
       1.9800999 1.6614352 -2.5676258 -3.2979414
000130 fe fa e9 be 0c 2f 2b c0 9a 57 d2 be 84 e3 68 c0
       -0.45699304 -2.6747465 -0.4108246 -3.6388865
000140 91 63 ed bf 29 2f 34 c0 66 03 d4 bf 87 1f f7 bf
       -1.854601 -2.8153784 -1.6563537 -1.9306496
000150 eb a3 75 3f d7 90 a9 bf 25 13 0f c0 b8 48 f3 be
       0.95953244 -1.3247327 -2.2355435 -0.47516418
000160 b9 af 65 c0 55 b5 02 c0 e9 a2 17 c0 f4 6f 51 3d
       -3.5888503 -2.0423176 -2.3693182 0.051132157
000170 76 21 d4 3e d9 43 fe bf ca 97 ea 3b 4e 91 7b c0
       0.4143178 -1.9864455 0.007159208 -3.9307437
000180 d5 14 c8 3d d0 af 88 bf 86 04 0a c0 3b f0 bf bf
       0.097695984 -1.0678654 -2.156526 -1.4995188
000190 55 de 23 c0 6d 02 4c c0 08 dd 91 c0 93 fd 57 c0
       -2.560445 -3.187648 -4.5582314 -3.374852
0001a0 ec ca 1a c0 5e e1 cb be b9 3c 27 c0 5d c4 3a c0
       -2.4186354 -0.3982038 -2.6130812 -2.918235
0001b0 ee 96 27 c0 b5 06 14 c0 db 89 b4 bd da 72 3c bf
       -2.618587 -2.3129094 -0.08815356 -0.7361275
0001c0 a2 83 4a c0 ab 54 20 c0 5d 08 31 c0 cb 3e 7e c0
       -3.1642842 -2.5051677 -2.7661355 -3.9725826
0001d0 a5 47 9c bf 72 28 82 bf 15 1d 3b c0 d4 cb 84 c0
       -1.2209364 -1.0168593 -2.92365 -4.1498814
0001e0 73 24 ca bf 08 11 28 bf 9d c7 7d 3e 8f 73 d8 3e
       -1.5792373 -0.6565099 0.24783178 0.42275664
0001f0 a8 03 6f c0 d3 db 0f c0 0c f4 f6 bf 80 e8 9a bf
       -3.7345982 -2.247792 -1.9293227 -1.2102203
000200 37 aa 1b c0 2e 1f 0f bf d6 ff 3f c0 c0 56 28 40
       -2.432264 -0.5590695 -2.99999 2.6302948
000210 a9 9a 59 bf 32 97 44 c0 e3 0d f3 bf 50 3a 31 c0
       -0.8500162 -3.0717282 -1.8988613 -2.769184
000220 ae d0 b6 bf 51 89 2e c0 80 22 d4 bf 3d 6b 45 c0
       -1.4282434 -2.7271311 -1.6573029 -3.0846703
000230 0e e5 f1 bf 5d 6e 7e 3d 56 d3 9a bf 0e 08 1a bf
       -1.8898027 0.06211697 -1.2095745 -0.6016854
000240 0c 8f d5 bf 39 17 9c be 3e a7 0e bf 6f e2 86 bf
       -1.668428 -0.30486467 -0.5572394 -1.0537852
000250 42 ac 0a c0 f5 be c8 bf 86 de 16 c0 46 19 4a c0
       -2.1667638 -1.5683275 -2.3573318 -3.1577926
000260 d3 ca 0b bf e3 7f 5e bf db 85 ca bf e5 ef b5 bf
       -0.5460636 -0.8691389 -1.58221 -1.4213835
000270 d6 30 4a c0 89 04 4d 3f f4 9c c0 3f 5f cb 4e bf
       -3.1592307 0.80085045 1.5047898 -0.8077907
000280 94 d3 c3 3f 20 7a 43 c0 07 96 05 c0 e6 81 68 bf
       1.5298944 -3.054329 -2.087282 -0.9082321
000290 60 47 d5 bf d6 53 5b be 88 93 3a c0 1f 2b 70 bf
       -1.6662407 -0.214187 -2.9152546 -0.938158
0002a0 95 0a d2 bf 6d 75 00 40 54 18 4e bf 4c f5 cc 3f
       -1.6409479 2.007167 -0.8050587 1.6012359
0002b0 e9 12 97 3d b2 30 9d bf 54 db 3c c0 21 2f 7d bf
       0.07376654 -1.2280486 -2.9508867 -0.9890004
0002c0 4e 50 5d c0 33 5c f5 3e e8 6c 59 c0 69 fc 52 3d
       -3.4580264 0.47921905 -3.397272 0.05151025
0002d0 dc 21 43 be bc 4d 33 c0 23 b3 1c c0 e8 a9 29 c0
       -0.19055885 -2.8016195 -2.4484336 -2.6509953
0002e0 e1 a1 42 c0 9a 99 9d be 24 be 16 c0 30 11 b2 bf
       -3.0411303 -0.3078125 -2.3553553 -1.3911495
0002f0 b4 43 21 3f ce 4f 29 c0 4e 19 5b c0 1a 88 ea bf
       0.6299393 -2.645496 -3.4234195 -1.8322785
000300 18 c2 b3 3f e7 bc 13 c0 61 2d f3 3f 0c 9a 30 c0
       1.4043608 -2.3084047 1.8998224 -2.7594023
000310 5d 74 15 c0 63 dd 15 c0 d7 a9 84 bf 53 d3 bd bf
       -2.3352273 -2.3416374 -1.0364331 -1.4830116
000320 f5 c1 0b c0 28 6b 4c c0 0c a3 22 bf 12 3a 4f c0
       -2.1837132 -3.1940403 -0.6353004 -3.2379193
000330 cc 48 1d bf 09 86 61 bf 0d 65 85 3f 44 b7 5f bf
       -0.61439204 -0.88095146 1.0421463 -0.87389016
000340 cf 77 9b bf 77 f3 55 c0 67 87 19 be 60 19 65 c0
       -1.2145938 -3.342985 -0.14993058 -3.5796738
000350 2d 98 2a c0 ee 32 47 c0 76 b5 c8 bf 23 83 21 c0
       -2.665538 -3.1124835 -1.5680377 -2.523629
000360 1f a3 c9 be 8b f6 ce bf 66 09 99 bf 9e e1 a7 bf
       -0.39382264 -1.6168989 -1.1955993 -1.3115728
000370 71 f2 80 c0 5b a8 a4 3e 85 86 26 c0 b4 8d 22 c0
       -4.029595 0.32159695 -2.6019604 -2.5398989
000380 63 e0 0c c0 42 cc 0f c0 ee 18 cc 3e d0 4c b8 bf
       -2.2011955 -2.246842 0.3986277 -1.4398441
000390 03 3e 3e c0 fc 95 50 be a3 d8 4b bf c5 26 12 3f
       -2.972535 -0.20369714 -0.79627436 0.5709041
0003a0 f5 74 37 c0 cf 55 b4 bf eb b6 1a bf 44 2b 07 c0
       -2.8665135 -1.4088687 -0.6043536 -2.1120157
0003b0 89 0d 1c c0 6b 40 23 c0 f0 00 09 be e1 90 09 bf
       -2.4383261 -2.5508068 -0.13379264 -0.5373669
0003c0 c8 b2 a0 3d 52 d7 24 c0 39 7c b8 3b 5e 9d c9 bf
       0.078466 -2.575642 0.005630043 -1.575115
0003d0 5e 27 b5 bf af c4 39 c0 d4 7e e7 3e 15 20 b1 bf
       -1.4152639 -2.9026296 0.4521395 -1.3837916
0003e0 0e 57 b8 bf fe 31 48 c0 75 27 54 bf 94 09 2b c0
       -1.4401567 -3.1280513 -0.82872707 -2.6724596
0003f0 e2 8e b8 bf ba 53 a1 bf c9 45 93 be c2 26 bd bf
       -1.4418604 -1.2603676 -0.2876418 -1.4777453

fc2.weight f4 [256, 258]
000000 9f f2 ce 3d d5 6e 6c 3e f9 86 c3 3d c5 23 c0 be
       0.1010487 0.23089154 0.09547228 -0.3752729
000010 8d 7d e0 be cb 8c 15 ba a5 15 b1 bc 9d 68 cb 3e
       -0.43845788 -0.0005704879 -0.021616766 0.3972825
000020 93 6e 18 be 5c 03 3f 3e 32 5f e1 3e af 54 c4 3e
       -0.1488593 0.18653625 0.4401794 0.38345858
000030 cb 59 a9 3e 0c 3a c5 3e 9f a2 80 bd 72 65 50 3e
       0.3307632 0.3852085 -0.062810175 0.20351198
000040 fd b5 0b be ac 51 98 3e eb 06 19 bc 6d 71 3c be
       -0.13643642 0.2974981 -0.009340028 -0.18402644
000050 31 10 71 3e ee 8d b4 be ec 26 fe 3e 24 30 70 be
       0.23541333 -0.35264534 0.4963907 -0.23455864
000060 31 08 6e 3e 02 6b 90 3d 9a 27 2b bf cc 02 0e be
       0.23245312 0.0705166 -0.668573 -0.13868254
000070 81 af 18 bd c5 e6 01 bf 06 dd 29 3f 0e 6f 8b 3e
       -0.03727675 -0.5074275 0.6635288 0.27233166
000080 50 53 a6 be 3a 58 35 3d d9 d2 10 3f 72 e0 e4 bd
       -0.32485437 0.044273593 0.5657173 -0.11175622
000090 6e 5c 40 3e 14 66 0b 3e 3c 44 01 3d e1 4f 82 be
       0.18785259 0.13613158 0.031559214 -0.25451568
0000a0 fc c2 5a 3e 3e 3d a5 be d4 2d d2 3e 3c 15 4a be
       0.21363443 -0.32273287 0.4105059 -0.19734663
0000b0 0a 3e 1f bd 88 3d c5 3e b5 76 6b 3e 64 3c 5c be
       -0.038877524 0.38523507 0.22994502 -0.21507412
0000c0 51 a7 55 be 26 21 92 be 4f 33 33 be 8b 18 07 3f
       -0.20864607 -0.28540915 -0.17500041 0.52771825
0000d0 1b d8 bf be 39 28 98 be d0 af f2 3e 29 3d 21 bd
       -0.37469563 -0.29718187 0.4739976 -0.039364967
0000e0 76 7a b6 3e ff 37 67 3e c0 42 c5 be 7b 3b aa 3e
       0.35640305 0.22579955 -0.3852749 0.33248505
0000f0 e5 2b 52 3c ce 3c 53 be 88 7c b3 bd bf ef c1 3e
       0.012827848 -0.20628664 -0.08763987 0.37878224
000100 17 26 72 3e 02 cf f6 3d 48 74 9e be d4 4b 84 3d
       0.23647343 0.12051202 -0.3094809 0.064597756
000110 91 2d af 3e 94 d8 ed 3d 63 be f1 3e 0b f5 e3 be
       0.34214452 0.116135746 0.47215566 -0.4452289
000120 00 b5 6f be 1e 84 9f be db bc 06 3f 2a 7e 02 3f
       -0.2340889 -0.31155485 0.5263192 0.5097376
000130 26 f4 5c bd b1 3d ac 3d b2 8e ad 3d 51 ca 11 3f
       -0.053943776 0.08410204 0.084744826 0.56949335
000140 99 1b 8c ba 48 d2 8f 3e 6f 5b 89 3d 48 1c 41 3e
       -0.0010689377 0.2809012 0.06706893 0.18858445
000150 81 34 19 3e bb d7 72 be 3c 2a 0b 3f 91 45 09 be
       0.14961435 -0.23715107 0.5436132 -0.13405444
000160 2b 78 00 3f 8b 9a 9e bd 63 76 82 3d 72 e2 fd bd
       0.5018336 -0.077443205 0.06370237 -0.12396707
000170 e3 a9 07 bd 70 6b 8d 3f d8 f7 3e 3e 23 44 01 3f
       -0.033121 1.1048412 0.18649232 0.50494593
000180 4c 7e 1d bf b2 51 83 bc ac 68 e1 3e 9b be 03 be
       -0.6152084 -0.016030166 0.4402517 -0.12865679
000190 42 4c e9 3e 72 1a 8a 3e 62 76 b1 3e c7 76 fc 3e
       0.45565993 0.269733 0.3466063 0.4930937
0001a0 9e 38 a5 3d cc 43 4a be 60 89 5f 3e 1c ee 21 3e
       0.080674395 -0.19752425 0.21829748 0.15813488
0001b0 8d 01 9b 3e 62 08 e2 be d2 be b6 3c f1 ec da 3d
       0.3027462 -0.4414702 0.022307787 0.10689724
0001c0 5e f2 b6 3e f3 88 44 be 68 1b de 3e 22 33 a4 3e
       0.35731786 -0.19192867 0.43380284 0.3207026
0001d0 e9 86 87 bd 19 93 42 bd 93 84 db 3e 31 27 90 be
       -0.06617529 -0.047503565 0.42874584 -0.281549
0001e0 47 76 05 3f 2f 41 99 3d 53 42 6c bd 9a 23 af be
       0.521336 0.07483136 -0.05768044 -0.3420685
0001f0 98 78 a7 3f c7 32 5c 3b 84 22 f4 3c f4 fb b8 be
       1.3083677 0.0033599602 0.029801615 -0.36129725
000200 09 d1 fe bd 5c 27 ec 3c 8f 78 05 3f 07 03 38 be
       -0.12442214 0.028827362 0.5213708 -0.17969905
000210 9e 65 3e 3e 39 1e b1 3d 98 5e 70 3e fc 92 2f 3e
       0.18593451 0.08648343 0.23473585 0.17145914
000220 e5 0d 49 bc 54 6d 2e 3f 59 81 cb be 29 6f 0a 3f
       -0.012271379 0.6813557 -0.39747122 0.54075867
000230 14 74 c9 bd 5f 7e 33 3e b8 0a 19 3e 18 1e 4f be
       -0.09836593 0.17528675 0.14945495 -0.20226324
000240 04 64 87 bd bc cf 96 be fc e4 1c 3d 24 01 8d 3d
       -0.06610873 -0.29455364 0.038304314 0.06884983
000250 13 a2 65 3e 74 15 21 3e cb 6b e6 3c 01 84 87 3e
       0.22425108 0.1573084 0.028127572 0.26467898
000260 a3 87 6f be dd d0 12 3e 05 66 c7 3e c0 7a 6c 3e
       -0.23391585 0.14337488 0.38945022 0.230937
000270 35 57 3a 3e 62 d3 c5 bb 58 9e 0b 3e 7e 55 2c be
       0.1819733 -0.0060371617 0.13634622 -0.16829488
000280 10 34 aa bd c1 f4 94 3e e1 b9 0f 3e d6 12 0c be
       -0.083107114 0.29092982 0.14035751 -0.1367906
000290 9e f6 37 3e c3 28 16 bd 99 35 00 3f 0e bc 2e 3e
       0.1796517 -0.036659967 0.50081784 0.17063925
0002a0 62 d5 83 bd 0f 57 1d be d1 56 6d be 1d ed 5b be
       -0.06437184 -0.15365241 -0.23177649 -0.2147717
0002b0 5a 6f a4 3e 40 fa ce bc 12 47 0b 3d 78 4d 89 bd
       0.32116205 -0.025265813 0.034003325 -0.06704229
0002c0 cd 17 68 3d 03 c2 02 3e 47 0f 0f 3f 50 43 22 be
       0.056663323 0.12769322 0.55882686 -0.1584599
0002d0 13 74 47 3e bc 78 22 3f ce e4 b0 3d 59 dc 8c 3e
       0.19477873 0.63465476 0.08637391 0.27511862
0002e0 29 84 cb 3e 0f 38 3f be b4 28 c2 3e 42 54 29 be
       0.39749268 -0.18673728 0.3792168 -0.16536048
0002f0 a8 ca b2 3d 97 15 bc 3e c5 77 07 3f 14 c2 8c bd
       0.0873006 0.36735222 0.5291713 -0.06872955
000300 83 01 7d bc 5e c6 ae 3e 9c b1 f2 be df f7 84 3e
       -0.015442255 0.34135717 -0.4740113 0.2597036
000310 8f 9a c8 3d a5 9d 9f 3d 72 b4 65 be 83 e3 6b 3d
       0.09795105 0.0779374 -0.22432116 0.05759002
000320 9b b6 87 3e 25 4b da 3e 15 4a bf 3d 29 6b fe 3e
       0.26506504 0.42635456 0.09340302 0.49691132
000330 d2 40 0d bd 04 47 70 bd 7f 37 17 3e 0d bc f3 be
       -0.034485646 -0.058661476 0.14767264 -0.4760441
000340 c2 2a 91 3e 8b 06 f6 3e b1 78 de 3d 0c 1c 00 3f
       0.28352934 0.48051867 0.10862864 0.50042796
000350 02 76 6e 3e 7a 33 f6 3e d8 1d 53 3d e1 8d 64 3e
       0.23287204 0.48086149 0.051542133 0.22319748
000360 db 24 83 be 2f 50 87 3e fc 57 64 3d ba 19 bd bd
       -0.25614056 0.26428363 0.05574797 -0.092334226
000370 5f 40 1a 3f 33 65 cf 3d 0a ae 71 3e 75 ac b4 3b
       0.6025447 0.10126724 0.23601547 0.0055137225
000380 5a d4 14 3e 4e c1 09 3f 71 f1 c6 bd 16 bb 36 be
       0.1453413 0.53810585 -0.0971402 -0.17844805
000390 7e 61 5c 3e aa 69 55 3c ff a7 01 3f 11 33 a5 3d
       0.21521565 0.013025681 0.50646967 0.08066381
0003a0 78 e2 20 3e 76 18 93 3e 1c 7a 32 be 28 0a 2e 3e
       0.15711391 0.287296 -0.17429394 0.16996062
0003b0 f4 62 cb 3d 10 e7 33 bc d6 22 d6 bd 56 0d 5c 3e
       0.09930983 -0.010980383 -0.10455863 0.21489462
0003c0 26 f8 13 3d 50 41 0e 3f 6a 61 97 be 36 88 a3 3e
       0.036125325 0.5556841 -0.2956651 0.31939858
0003d0 3f 5c 95 be 76 cb 72 3e 2f 48 8b be 4f 7c 80 3e
       -0.2917194 0.23710427 -0.2720351 0.2509484
0003e0 eb b2 20 be a1 ad 88 3e 45 5d 14 3e 60 aa 89 3e
       -0.15693252 0.26694968 0.14488705 0.26887798
0003f0 38 54 4e 3e 7d 88 55 be 8a e7 e0 be 9a 42 6a bd
       0.20149314 -0.20852847 -0.4392665 -0.057192422

fc2.bias f4 [256]
000000 41 69 2e c0 7b 7a 16 c0 74 66 53 3f a7 6f a9 3e
       -2.7251742 -2.3512256 0.82578206 0.33092996
000010 cf 5d 95 3f 55 7f a4 bf 4b 32 cc be 22 d0 49 bb
       1.1669253 -1.2851359 -0.3988212 -0.0030794223
000020 af 66 ee bd 15 fb d4 bf 42 33 8c bf 93 68 d7 bf
       -0.11640679 -1.6639124 -1.0953143 -1.6828789
000030 67 24 92 bf b6 85 01 c0 0e 85 73 3d 6e 6b 40 c0
       -1.1417359 -2.023786 0.059453063 -3.006557
000040 d3 0b 39 c0 e3 26 17 bf 57 1a 09 c0 85 ac fb bf
       -2.8913467 -0.5904371 -2.1422327 -1.9662024
000050 49 a7 11 c0 aa cf 18 c0 51 d6 1e 3e a4 ef 54 bf
       -2.2758353 -2.3876748 0.15511443 -0.8317816
000060 f6 61 b2 bf c8 0d b3 bf 02 b4 21 c0 99 1b ae bf
       -1.3936145 -1.3988581 -2.5266118 -1.3602172
000070 21 dd 36 3e 3b cc 4d bf ad 93 bf bd ef 49 2e c0
       0.17857791 -0.80389756 -0.09354339 -2.7232625
000080 7a 7d 38 be c4 e9 e2 bf 2e 13 c7 be 7f 88 f5 3e
       -0.18016616 -1.772759 -0.3888182 0.479557
000090 3e 20 0f c0 ee 14 40 bf bf 17 00 bf dc 4c 8f bf
       -2.236343 -0.75031936 -0.50036234 -1.1195331
0000a0 4e 63 03 c0 cb 77 a9 bf 0d 15 c9 bf 12 87 09 bf
       -2.052936 -1.3239683 -1.5709549 -0.53721726
0000b0 ca 49 ec bf 86 bc 1f be df 9c 13 c0 2e 17 f2 bf
       -1.8460019 -0.1559926 -2.3064497 -1.8913324
0000c0 e1 e8 ba bf 98 c7 08 c0 a9 fa 0c c0 9c 9a 13 c0
       -1.4602319 -2.1371822 -2.202799 -2.3063116
0000d0 f6 c6 f8 bf 4e fd 1e c0 5b b3 24 bf 48 4f fb bf
       -1.9435718 -2.4842105 -0.64336175 -1.963357
0000e0 1d 44 4a bf 27 d8 d8 3e 85 3b 51 3f 23 47 10 c0
       -0.7901018 0.4235241 0.81731445 -2.2543418
0000f0 3b ef 2d be 73 45 94 bf 2b a5 8f bf 7d ad 24 bf
       -0.1698579 -1.1583694 -1.122228 -0.6432722
000100 04 e4 e6 be 47 c7 1d c0 46 9e 16 c0 eb 01 ab bf
       -0.45095837 -2.465288 -2.3534102 -1.335996
000110 b6 1c db bf af 44 cb be 17 3c 29 c0 2e 36 ca bf
       -1.7118137 -0.3970084 -2.6442926 -1.5797784
000120 a8 ec b0 bf 7b 36 49 bd 1f 79 0e c0 15 ae 9e bf
       -1.3822222 -0.049124222 -2.2261426 -1.2396876
000130 b0 bb 29 be f7 e4 0e bf 58 3a af 3c ec 66 88 bf
       -0.16575503 -0.5581812 0.021390125 -1.0656409
000140 96 89 af bf 21 d5 df bf 74 66 bf bf 9d 1d 0c c0
       -1.3713863 -1.7486917 -1.4953141 -2.1893075
000150 75 3b 6f bf 41 77 bc 3d c5 c3 cf be 78 6f 0b c0
       -0.934501 0.092024334 -0.40579048 -2.1786785
000160 6a c5 04 c0 13 16 28 c0 21 c1 db be 69 1f 04 c0
       -2.0745492 -2.6263473 -0.42920783 -2.0644171
000170 0f 58 bf bf ae 0e 8c be 85 a7 3b bf ed ea 11 c0
       -1.4948748 -0.2735495 -0.7330249 -2.2799637
000180 21 37 11 c0 0d 26 1d c0 c9 f5 a8 bf fd 12 50 3e
       -2.2689898 -2.4554474 -1.3200008 0.20319743
000190 96 da 08 c0 88 5e 0f c0 fd e8 1d c0 61 c7 51 bf
       -2.1383414 -2.2401447 -2.4673455 -0.81944853
0001a0 73 88 af be 16 9b 18 bf 7a 01 00 c0 35 4c b8 bd
       -0.3428379 -0.5961164 -2.0000901 -0.0899891
0001b0 2d 00 20 be ec 7e fd bf 85 73 e1 bf b9 15 ae bf
       -0.15625067 -1.9804358 -1.7613379 -1.3600379
0001c0 db c5 8a bf 57 77 27 c0 3e 84 f7 bf cf 8a c0 bf
       -1.0841631 -2.616659 -1.9337232 -1.5042361
0001d0 d3 8a 47 c0 7e ad eb 3e 40 8a 41 be 9e fa 00 c0
       -3.1178482 0.46030802 -0.18900394 -2.0152965
0001e0 2e 96 46 bd 03 e1 d1 be 6e 5d 00 c0 19 ee 0b c0
       -0.048483066 -0.40991983 -2.0057025 -2.1864073
0001f0 98 4a 8a be 73 77 0f c0 d3 84 a3 bf 23 1b a9 bf
       -0.27010036 -2.2416656 -1.277491 -1.3211406
000200 74 2c 21 3f f6 4a 40 c0 f4 49 6e 3f 92 a3 12 3d
       0.62958455 -3.0045753 0.93081594 0.035800524
000210 82 f2 b5 bf 0f 6f f7 3e 3f 7b 0c c0 44 a3 e8 bf
       -1.4214633 0.48326918 -2.1950223 -1.8174825
000220 b4 56 e9 bf 3e 8b d5 bf 1a 26 6d be e0 a5 a0 bc
       -1.8229585 -1.6683118 -0.23159066 -0.019610345
000230 4c 94 42 c0 c8 a5 d1 3e ae 41 24 c0 94 2b 04 c0
       -3.0403013 0.40946794 -2.5665088 -2.0651598
000240 18 95 f7 be 5e 19 85 3f 43 fc 24 3f 76 44 5d bf
       -0.48355937 1.0398366 0.6444742 -0.8643259
000250 7f 24 78 bf 5e ff ad bf 63 5e 2e bf 27 cb fe be
       -0.9693069 -1.3593557 -0.6811277 -0.49764368
000260 d5 0e de bf bf f8 eb 3d c4 76 0d c0 ca 27 bd bf
       -1.7348276 0.11522054 -2.2103739 -1.4777768
000270 d2 cb d0 bf 77 84 16 c0 3c f8 f6 bf 82 65 09 c0
       -1.6312201 -2.351835 -1.9294505 -2.1468205
000280 34 f7 10 c0 b0 96 21 3d 0b e1 15 c0 e6 3a a0 bf
       -2.265088 0.039450347 -2.3418605 -1.2517974
000290 48 8c fd bf d0 b2 89 3f 6e 5f fe bf be c6 00 c0
       -1.9808435 1.0757694 -1.9872873 -2.0121303
0002a0 b9 c6 20 c0 fc f9 b5 3f 94 9d af bf 82 7c f8 bf
       -2.512129 1.4216914 -1.3719964 -1.9412997
0002b0 e3 7f f3 bf 6d ee d7 3f 44 c8 a7 bf dd a6 1f c0
       -1.9023403 1.6869637 -1.3107991 -2.4945595
0002c0 51 b3 e1 bf a4 87 14 c0 25 6e 1e c0 5b 56 c5 bf
       -1.7632848 -2.3207788 -2.4754727 -1.5416979
0002d0 6a 5a b6 3e 03 99 0e c0 93 c0 39 3f 67 1a af bf
       0.35615855 -2.228089 0.7255947 -1.3679932
0002e0 4e d4 25 c0 79 57 2c bd 10 c1 34 be 05 7a 13 bc
       -2.591083 -0.042075608 -0.17651772 -0.00900126
0002f0 e0 e4 13 c0 b8 43 1b 3f 5a e4 44 bf 9e 65 2b c0
       -2.3108444 0.60650206 -0.76910937 -2.6780772
000300 e9 c3 04 c0 03 e1 2b bf a6 27 e8 bf 0c e9 d8 bf
       -2.0744574 -0.67140216 -1.81371 -1.694612
000310 d2 8c d3 bf de c8 cc bf 05 f2 b5 bf 40 7e de bf
       -1.652735 -1.59988 -1.4214483 -1.7382278
000320 bb 50 60 3e 73 65 df bf 3a 4c 34 c0 78 cb e3 bf
       0.21905796 -1.7452835 -2.8171525 -1.7796469
000330 64 83 d9 bf 9f ec 82 bf 95 b9 10 bf 26 23 26 c0
       -1.6993222 -1.0228461 -0.56533176 -2.5958953
000340 69 28 6f bf 46 1e cc bf 15 87 ec be aa 67 7b bf
       -0.93421036 -1.5946739 -0.4619681 -0.98205054
000350 bd 83 17 c0 1e de c3 be f6 cc 34 bf 40 ca 3b bf
       -2.3674157 -0.382554 -0.70625246 -0.73355484
000360 72 95 29 bf b4 4e ea bf 83 80 09 c0 6b 1c d3 be
       -0.6624366 -1.8305268 -2.1484687 -0.4123262
000370 77 4e 04 c0 8d be 0e c0 8e cd 0b c0 8f d8 20 c0
       -2.067289 -2.2303803 -2.184421 -2.5132177
000380 c7 08 1c c0 5e b5 f2 bf 87 a6 bf be d1 e4 0c c0
       -2.4380357 -1.8961599 -0.37431738 -2.2014658
000390 e2 a3 82 3d e5 06 13 be d0 5f 8b c0 be 72 41 bf
       0.063789144 -0.14358099 -4.355446 -0.7556571
0003a0 67 6a 2c c0 2a 0c ac bf 4c 8f a1 bf 33 2c 1f c0
       -2.6939943 -1.3441212 -1.2621856 -2.4870727
0003b0 ef 92 d1 bf 9d 2b 3c bf 90 b0 98 bf d7 31 81 bf
       -1.6372966 -0.7350405 -1.1928883 -1.0093335
0003c0 b7 2c 98 bf 6c e3 05 c0 be 6d cd bf f5 ff 09 bf
       -1.1888646 -2.0920057 -1.6049116 -0.53906184
0003d0 84 b9 bb bf d6 5e c6 bf b6 df 9f bf ee 7d 48 bd
       -1.466599 -1.5497692 -1.2490146 -0.04894822
0003e0 70 fb 23 bf a0 e7 2c 3e c5 f5 57 be 7a f8 a3 bf
       -0.6405554 0.16885233 -0.21089847 -1.2810204
0003f0 e0 f1 8d bf 5c 48 fd bf 25 46 2a c0 3e 80 9c bf
       -1.1089439 -1.9787707 -2.6605313 -1.2226636

fc3.weight f4 [128, 256]
000000 63 b6 21 3e ec 1c 8b 3c 13 8d 5b 3a 63 83 24 be
       0.15792231 0.016981564 0.00083752087 -0.16065745
000010 21 44 a1 bd d3 74 06 3e 5a 0e 45 3e cf dd dd 3d
       -0.07874323 0.13130502 0.19243756 0.10833322
000020 08 04 8a 3d 2f fe 0e 3e a6 7b cd 3c 8a 81 a1 3d
       0.0673905 0.13964151 0.025083374 0.07886036
000030 4f 7c 8e 3e f9 5f c9 3d 93 15 1e bd d9 87 1e 3d
       0.27829215 0.098327585 -0.038594794 0.038703773
000040 ae ee e4 3d 50 2a 32 3e 3e ff c0 3d 06 5e 8c 3d
       0.11178337 0.17398953 0.094236836 0.06853871
000050 86 d3 89 3e e7 31 0e 3d 67 df 21 be c4 01 0f 3e
       0.26919192 0.03471556 -0.15807877 0.13965517
000060 7e 0c 53 3e 8e 5c 74 3e 63 8b bc 3d 9f 4a 93 3d
       0.20610234 0.23863432 0.092062734 0.07191967
000070 a6 f1 0d 3d 2d 69 df bc 62 b4 fd bd 0a e5 3c 3e
       0.034654282 -0.027271831 -0.12387921 0.18446746
000080 ea 71 a5 3d 34 c9 e8 3d 1a 5f 6e 3d 11 5e 92 bd
       0.08078368 0.113665015 0.058196165 -0.07146848
000090 b9 45 88 3e 76 3c 58 3e c6 c3 b1 bd 12 7f 03 bd
       0.26615694 0.21116814 -0.08679919 -0.032103606
0000a0 71 19 f9 3d e0 5f 94 3d 12 53 73 3e 7b 29 01 3e
       0.12163056 0.07244849 0.23762158 0.1261348
0000b0 bb b6 71 3d e1 61 92 3d 68 1c 08 bd e0 41 05 3e
       0.059012156 0.07147575 -0.033230215 0.1301341
0000c0 30 42 c6 bd 23 09 f3 3d 6f c5 72 3e 3b 6d 33 3e
       -0.09680593 0.11866977 0.23708127 0.17522137
0000d0 99 91 96 3d 84 1e 96 3e 44 6b 71 3d 73 3d 2e 3e
       0.07351989 0.29320157 0.058940187 0.17015629
0000e0 af af 89 bd 73 b9 82 be 1c 46 1a 3e dd 6a a7 3d
       -0.06722962 -0.25532112 0.15065807 0.081746794
0000f0 18 1b 93 3c 38 c6 00 3b 7d ff 97 bd 75 3a 22 be
       0.017957255 0.0019649398 -0.074217774 -0.15842612
000100 7b b4 50 bd 17 b9 d8 3c f5 cc 87 3e 28 bd b1 be
       -0.05095337 0.026455445 0.26523557 -0.34714627
000110 e1 e6 4d 3e 0e 3f fd 3d 1c 1e b6 3c 1e 56 d1 3d
       0.20107605 0.12365542 0.022231154 0.10221504
000120 37 30 d2 3c 09 6f 86 3d d1 81 39 3e e0 72 4d bd
       0.025657756 0.06564147 0.18115927 -0.05015838
000130 13 75 09 3d 1f 6b 4a be c9 11 85 be 42 5b 58 3d
       0.033558916 -0.19767426 -0.25990131 0.052821405
000140 1d ef eb 3d f6 84 0f bd 62 65 dc 3e 66 44 92 3e
       0.115202166 -0.03503891 0.430461 0.2856781
000150 db 77 82 3e b6 1e 9a bd 28 84 60 bd c6 1e fb 3d
       0.25482067 -0.07525389 -0.054813534 0.12261729
000160 56 ea d9 3c 03 8c 18 3e ce 60 f4 bd 0b 8f 6c 3d
       0.026600998 0.1489716 -0.119325265 0.057753604
000170 2c 78 12 3c b6 e7 87 3e 78 8b b1 3d 1a 07 4d bd
       0.008939784 0.2654397 0.0866918 -0.0500556
000180 9d dc c3 3e 9b 91 ed 3d 42 ce d3 bc 91 89 06 3d
       0.38254252 0.11600038 -0.025855187 0.032846037
000190 75 56 39 3e 64 d4 45 3e da 98 7e 3e ba 67 e7 be
       0.18099387 0.19319302 0.24862996 -0.45196325
0001a0 ad 57 0e 3e 9a 0a 71 bd 70 c9 2e 3e ca 37 85 bd
       0.13900633 -0.058848 0.1706903 -0.065047815
0001b0 dd 8e 7d bd 27 25 93 3d f4 89 09 3e 0f 13 95 3e
       -0.061903823 0.071848206 0.13431531 0.29116103
0001c0 6b 41 19 3e 99 15 aa 3e bc b7 3a 3e 7a 34 fd 3d
       0.14966361 0.33219603 0.18234152 0.12363525
0001d0 26 48 5b bc 57 ff 49 bb 22 44 84 3c 4e 61 1c 3e
       -0.013383901 -0.003082236 0.01614577 0.15271494
0001e0 ed 31 e0 bd 26 ca 51 3e 4f 4e a9 bc 6b a0 2c bd
       -0.109470226 0.2048727 -0.020667223 -0.042145174
0001f0 fb 29 47 be 13 f7 2e 3e 06 8d 35 3c e1 0c 22 bd
       -0.19449608 0.17086439 0.011080986 -0.039563064
000200 82 fd b0 3d e8 3f 27 3e 54 34 d5 be 51 a4 3f bc
       0.08642103 0.16332972 -0.41641486 -0.011696891
000210 5c 95 71 3d db 2e 4b bd fc c3 7b be 78 3f 66 3e
       0.05898033 -0.04960523 -0.24586481 0.22485149
000220 c6 e1 db bd b2 d1 88 3e 48 15 b9 bd 61 b8 34 bc
       -0.10736422 0.26722485 -0.09037262 -0.0110302875
000230 6d 7b 2d 3e e3 a8 38 3e 74 c3 74 3e 05 75 ee 3d
       0.16941614 0.18033175 0.23902684 0.116434135
000240 f0 fe b5 bc 40 ea 65 3e ac 1a f4 be ab e0 84 bc
       -0.02221629 0.2245264 -0.476766 -0.016220411
000250 38 05 3f 3e 49 86 ca 3d c4 e9 ef bd f6 cd cf 3d
       0.18654335 0.09888894 -0.11714509 0.10146706
000260 2b c3 aa 3d 03 e9 85 3d 8d 38 92 bc 76 70 95 3d
       0.083380066 0.06538584 -0.017849231 0.07296841
000270 5e d3 13 3e fc 11 a9 3e 25 c4 c3 3d 73 dd 17 be
       0.14436099 0.33021533 0.09558896 -0.1483057
000280 98 3e 7f 3e b1 46 72 3d 82 03 86 bd 46 7d d0 3d
       0.24926221 0.059149448 -0.06543638 0.10180144
000290 f8 07 1c bd a1 f4 54 3d cd ba 87 3e db a1 4f 3e
       -0.038093537 0.05199111 0.26509705 0.20276587
0002a0 03 41 d5 bd 00 8e ca 3d 90 c6 d4 3d ae 38 2b be
       -0.104127906 0.098903656 0.10389435 -0.1672084
0002b0 46 95 31 3e cd f3 36 3e 8d 4a 90 bd 03 1c 82 3c
       0.173421 0.1786644 -0.070454694 0.015882498
0002c0 10 41 a2 3e c0 49 02 3e b3 6a 04 3e 2c 05 a3 3d
       0.31690264 0.12723446 0.12931328 0.07959971
0002d0 13 06 e7 bc c8 03 f0 bc 15 6b 29 be 0b 16 bc 3d
       -0.028201139 -0.029298678 -0.16544755 0.09183892
0002e0 89 a0 2e 3e 56 63 93 bd af 48 3e 3e 16 9b a8 3d
       0.17053427 -0.07196681 0.18582414 0.08232705
0002f0 b5 6c 30 3e ad 64 15 3d f2 06 18 3d 18 1b 2c 3e
       0.17228968 0.036472965 0.037116 0.1680721
000300 9e f5 49 3e e1 84 26 be a8 5d 87 3e 0e eb 80 3e
       0.19722602 -0.16261627 0.26438642 0.25179332
000310 62 1e 88 3d 64 6c ba bc fd 83 23 3e f7 87 3a 3d
       0.0664642 -0.022756763 0.15968318 0.045539822
000320 e3 1b 5b bd 70 a4 22 3e 42 9d a1 3e 1d 73 df 3d
       -0.05349339 0.1588304 0.3156529 0.10910628
000330 25 52 e0 3d d6 8b 8d 3e d2 a8 fa 3d f7 e2 58 3e
       0.10953168 0.2764575 0.12239231 0.2118033
000340 20 bf db 3d 2c 05 7b 3e 58 00 89 be 72 aa e8 bc
       0.107298136 0.24513692 -0.26758075 -0.028401587
000350 73 09 de 3d 38 88 72 3d 11 a4 25 3e 18 16 55 3c
       0.10841646 0.05921194 0.16175868 0.013005756
000360 70 57 98 3e eb bb a8 3d dd ef 9a 3d d9 6a b8 3d
       0.2975421 0.082389675 0.075652815 0.090047546
000370 67 c2 d4 bd 0f 79 6f 3d b9 00 13 3e da 3f 87 3e
       -0.10388642 0.05846506 0.14355744 0.26415902
000380 c4 fd c9 3c 61 10 45 3e 24 98 b1 bd 22 be ea 3d
       0.024657138 0.1924453 -0.08671597 0.11462046
000390 ef af 5b bd 19 a0 29 bd 97 ef bf bd 28 ce 9c 3d
       -0.05363458 -0.041412447 -0.0937187 0.07656509
0003a0 5f c2 cf 3d ee d7 9b bd 4e 2c 24 3e a2 20 90 3c
       0.10144495 -0.07609545 0.16032526 0.017593686
0003b0 bd 8f 82 3e 64 ef d9 be 20 b8 ed bd 26 6b 8a be
       0.2550029 -0.42565453 -0.11607385 -0.27034873
0003c0 21 1d 4a 3e 0b da 46 3e a6 0a ca 3c de 9d b1 3d
       0.19737674 0.19419114 0.02466328 0.08672689
0003d0 58 04 74 3e 6e 00 5b 3e 77 5c 04 3e 3c 9a 6a 3d
       0.23829782 0.21386883 0.12925898 0.057275996
0003e0 d8 c1 42 3e ef df 85 3e 5b aa e5 3c 65 1c ea bd
       0.19019258 0.2614741 0.028035333 -0.11431197
0003f0 b2 8a 10 3e 78 6e 15 3d ec 93 4d 3d 7e 43 a8 bb
       0.14115408 0.036482304 0.050189897 -0.005134999

fc3.bias f4 [128]
000000 e6 ba 04 bf 47 20 7a be c2 6a b7 be d0 40 98 be
       -0.51847684 -0.24426375 -0.35823637 -0.29736948
000010 8d 54 22 bf 17 6e e2 be 2c 71 d7 be 44 aa 18 bf
       -0.63410264 -0.44224617 -0.4207853 -0.59634805
000020 0f 0c e0 be 30 c3 a8 be 49 e5 12 be 67 dd 85 be
       -0.437592 -0.32961416 -0.14345278 -0.2614548
000030 78 62 e9 bf d9 29 01 bf da 42 dd be bc 75 d5 be
       -1.8233175 -0.5045448 -0.43215066 -0.41691387
000040 f9 2a 34 be 95 d0 f9 be 53 97 c8 be ed 93 bf be
       -0.17594518 -0.48791948 -0.3917795 -0.37417546
000050 24 bd f8 be 28 7b d9 be 0e 2b f7 be f8 c5 f6 be
       -0.48581803 -0.42476773 -0.48275036 -0.48197913
000060 d4 c7 de be b9 78 6d be ac e3 c7 be aa 4d ce be
       -0.43511832 -0.23190583 -0.39040887 -0.40293628
000070 63 c1 f2 be 01 4f b0 be 35 f3 e2 be a0 93 2a be
       -0.47413167 -0.34435275 -0.44326177 -0.16657877
000080 76 32 c5 be 71 04 d8 be 13 fb 6f be 66 c5 d8 be
       -0.3851506 -0.4219089 -0.23435621 -0.42338103
000090 cb f2 07 be 27 d8 b1 3c d7 31 fb be d6 c3 ff be
       -0.13276212 0.021709515 -0.49061462 -0.49954098
0000a0 50 4b 01 bf 31 1d 10 bf f9 18 07 bf 00 de 97 be
       -0.5050554 -0.5629454 -0.5277248 -0.2966156
0000b0 a0 7b bc 3d ad 81 ea be 00 d5 f1 be 8c b3 9d be
       0.09203267 -0.4580206 -0.4723282 -0.30801046
0000c0 2b 09 c4 be 7f 1e ca be 90 89 14 bf f1 2e b6 be
       -0.38288245 -0.39476392 -0.58022404 -0.35582688
0000d0 4a 4f f9 3b f9 dc a8 3f 1d b9 f5 be 78 54 e3 be
       0.007608329 1.3192436 -0.47992793 -0.44400382
0000e0 b7 89 c9 be 18 d8 c8 be ec 14 d2 be 44 7f 09 bf
       -0.3936288 -0.39227366 -0.41031587 -0.53709817
0000f0 5c 71 cd be d5 f1 08 bf 4b 4a 95 3e f9 53 0b bf
       -0.4012555 -0.53494006 0.29158244 -0.5442501
000100 1c b0 38 bf 01 95 07 bf 05 62 a5 c0 d1 0f fd be
       -0.7214372 -0.52961737 -5.1682153 -0.4942613
000110 e7 e0 91 bf 4b 5c af be 07 de 68 be 8d e4 bb be
       -1.139676 -0.342501 -0.22740947 -0.36697808
000120 77 0d c8 be 49 d9 93 be 5c 57 57 be 1f c1 f6 be
       -0.39072773 -0.28876713 -0.21029419 -0.48194215
000130 b3 c3 b6 be 2a 22 a9 bf a7 7b d4 be f1 16 18 bf
       -0.35696182 -1.3213551 -0.4150059 -0.59410006
000140 48 12 57 be 9f fa bc be 50 8d 4c bf 27 fd b1 bd
       -0.21003067 -0.3690996 -0.79903126 -0.08690863
000150 99 d3 ee be d6 09 d3 be 7e 66 3d be f5 15 aa be
       -0.4664581 -0.41218442 -0.18496129 -0.33219877
000160 d1 4e cb be dd f9 9d be 1a 63 b7 be d8 60 10 be
       -0.3970857 -0.30854693 -0.35817796 -0.14099443
000170 33 61 07 bf 9b 4c 25 bf 4f 01 b9 be c6 29 e3 be
       -0.5288269 -0.64570016 -0.3613381 -0.44367808
000180 54 e2 ad be 6e 89 6e be 97 2b 2b 40 b5 da c6 be
       -0.33961737 -0.23294613 2.6745355 -0.38838735
000190 71 3f f6 be 8a 44 01 bd 08 61 76 be e8 e8 be be
       -0.48095277 -0.031559505 -0.24060452 -0.37287068
0001a0 74 d3 26 be a8 92 b8 be 79 f6 f5 be f2 48 54 be
       -0.162916 -0.3604939 -0.48039606 -0.20730951
0001b0 05 3c c9 bf 0c 7c c8 be 22 09 de be 36 71 b3 be
       -1.5721442 -0.3915714 -0.43366343 -0.3504731
0001c0 e7 a5 e0 be 28 c7 5c be c6 69 83 be 60 6b ff be
       -0.43876573 -0.21560347 -0.25666636 -0.49886608
0001d0 84 7e 14 bf 21 e6 cd be 4a 8d e7 be f2 f0 cf be
       -0.5800555 -0.40214637 -0.45224983 -0.40613514
0001e0 14 4a a6 be c5 5c 10 bf 49 c5 b3 3e d0 dd b1 be
       -0.32478392 -0.56391555 0.35111454 -0.34739542
0001f0 6f c6 8d be 4c be 99 be 60 21 8a be 18 3d 73 ba
       -0.27690455 -0.30027997 -0.26978588 -0.0009278818

fc4.weight f4 [1, 128]
000000 a6 56 ae 3b 45 eb 9d 3a 89 35 0f 3a ba ac ab ba
       0.005320388 0.0012048265 0.00054629944 -0.0013097741
000010 68 7a c5 bb 95 50 00 3a 95 a2 9e 3b 67 00 5b bb
       -0.006026555 0.000489482 0.0048411586 -0.0033416988
000020 4b f5 5a 3a c3 89 10 bc 64 e0 07 ba 5b 9b 00 bb
       0.00083525915 -0.008821907 -0.0005183278 -0.001962385
000030 07 10 98 bd 42 78 db bb 0b b2 80 3a 68 43 26 3b
       -0.07424932 -0.0066976855 0.0009818686 0.0025369767
000040 01 99 dc bb 68 d0 50 bb f4 fc 19 bc 64 67 97 3c
       -0.0067321067 -0.00318625 -0.009398688 0.018481918
000050 91 8b cc 3b 01 05 66 3b 0b 2e 6a bb 41 e1 8d bb
       0.0062422235 0.0035098197 -0.003573301 -0.004329831
000060 c6 1f 29 bb e1 1d 9b ba 5f ce 04 ba 96 55 5c 3c
       -0.0025806292 -0.0011834466 -0.0005066152 0.01344814
000070 03 65 a4 bb 8e 16 d4 3a c3 79 da ba 35 80 0a 3b
       -0.0050169243 0.0016181038 -0.0016668368 0.0021133546
000080 11 ee 40 bb 99 1d 1b 3a 05 23 98 39 3a ee 1b bc
       -0.0029438774 0.0005917191 0.0002901779 -0.009517247
000090 0c 48 aa bb 32 08 e6 3a 0d 23 6c ba 1a 48 86 3c
       -0.005196577 0.001755005 -0.00090079085 0.016391803
0000a0 3f 4b a7 39 01 ba 7d 3b 06 a5 ed bb df b3 8a ba
       0.00031908785 0.0038715603 -0.0072523383 -0.001058217
0000b0 7e 2e 64 3c 60 be 35 bb 72 68 c8 3c de 53 d0 bb
       0.0139271 -0.002773188 0.024463866 -0.006357654
0000c0 30 6d b3 b9 2d 71 7d bb e6 70 7e 3c ac 2c 69 3c
       -0.00034222892 -0.0038672194 0.015529847 0.014231842
0000d0 38 d6 90 bb 52 98 de 3c a2 52 31 bc 6a 3b 3f bb
       -0.004420068 0.027172241 -0.010822924 -0.00291797
0000e0 ea 42 b5 ba fc d5 01 3c 9e 73 d4 38 d0 5e 9d 3a
       -0.0013829146 0.007924553 0.00010130483 0.0012006406
0000f0 60 6b b5 3a 75 ec 8c 3a 7f a5 c0 ba 24 89 b5 bc
       0.0013841204 0.0010751622 -0.0014697759 -0.02216012
000100 94 19 8a bc 49 93 12 3b 6c f7 4a 3c a0 9f cf 3a
       -0.0168579 0.002236562 0.012388092 0.0015840419
000110 e6 17 07 3e 63 b5 dd 39 99 6e 82 bb 12 d5 df 3b
       0.1319271 0.00042287548 -0.0039804694 0.00683082
000120 7a 86 ed 3b a6 de 03 bb 15 f6 13 bc 3e f8 fd bb
       0.007248697 -0.0020121722 -0.0090308385 -0.00775054
000130 cf 10 37 3b f1 9d bc bc af 78 46 3c 2a 20 70 3a
       0.0027933603 -0.023024531 0.012113734 0.0009160066
000140 e2 4b 9b 3b bb 4b 79 bb 09 0a 78 b9 58 b8 06 bb
       0.0047392705 -0.0038039524 -0.00023654861 -0.0020556655
000150 eb 6b 7f ba 21 31 3b ba 52 53 01 ba a3 13 3d 3b
       -0.0009743559 -0.00071408047 -0.0004933375 0.0028850816
000160 76 72 31 39 d7 3a b8 b8 d8 db e9 b9 91 54 8b ba
       0.00016922675 -8.7847635e-05 -0.0004460502 -0.0010630061
000170 a4 97 2b bb 1e c7 90 bb 6a 52 0d bb 6f 02 9a 39
       -0.0026182914 -0.004418268 -0.0021564015 0.00029374982
000180 88 9a d5 3a 01 5e 60 bb 0d 22 0c 3d 7a b0 09 3a
       0.0016296664 -0.0034235718 0.03421216 0.00052524323
000190 27 91 a4 3c ae f9 a7 ba f0 2b aa ba b1 b1 8b 3a
       0.020088745 -0.0012815499 -0.0012983065 0.0010657815
0001a0 1c 73 11 bb 21 b2 f3 bb 81 24 88 3a a8 b8 83 bb
       -0.0022193855 -0.007437006 0.0010386856 -0.0040198155
0001b0 b0 78 21 bc 45 5c 3b 3b fa 8c f0 ba 38 e6 d4 3b
       -0.009855434 0.0028588932 -0.0018352561 0.006497171
0001c0 c4 68 cc 38 8e ad ec 3a f1 79 99 3c 12 fe c3 ba
       9.746992e-05 0.0018057094 0.018734904 -0.0014953038
0001d0 a7 51 73 3c 68 a2 31 b8 fb c9 d9 3b 09 65 84 3c
       0.01485101 -4.235134e-05 0.0066463924 0.016161459
0001e0 17 9d 1a bb 6e 67 cf ba 58 1c b2 bc 42 f5 3f 3a
       -0.0023592168 -0.0015823671 -0.021742031 0.0007322618
0001f0 9e ae 89 3c f6 01 f3 b9 b0 73 7b 3a da 82 94 3a
       0.016806897 -0.00046350033 0.0009592129 0.0011330501
