checkpoint_actor.pth (torch_old, 28421 bytes, 4 tensors)

fc1.weight f4 [256, 24]
00000000: 4240 b73c e787 963e 8f61 35bd df8e 003d
00000010: 7d09 94be 86d9 adbe 54d1 8f3b f481 88bd
00000020: d77e 283c c321 713e 405a 3d3c 6fa8 a73d
00000030: f40d 26be 8c69 ebbe 5a30 1dbd 5da5 df3d
00000040: 32cb 6cbc fe6c d33e dcdd aabc 78aa db3d
00000050: 6387 b2bd 5de5 d1be c365 66bd 5479 1d3e
00000060: 838a 90bd 8fb4 ba3e 2d14 80bb cd8f 7dbe
00000070: 3ab8 a83e 2aec 2d3c 3029 70bc fdec 32be
00000080: 68a1 b13c 42d8 9c3e 11b3 b7bc 13cc 92be
00000090: f07d 093e ef89 83bd 164d 3b3d 75d9 73be
000000a0: 538b bebd 3a60 113e 4e3b 473c 4358 c9bd
000000b0: 3374 a83d f6ce 32be 3b53 59bd 1b50 11bd
000000c0: c0ef ebbc 48ae 2cbe eec4 02bd 2d27 e4bd
000000d0: 727f 8d3e c37d 30bd f79b a9bd 0e0f 36bd
000000e0: 5f69 02bd 2ecc 26be f75b 4abc 483b b5bd
000000f0: 3513 163e 720d 87bc 9c0d 893c 2f48 1cbd
00000100: f41a 3d3c 2380 80be 656e ea3b c43f 2bbc
00000110: 5bfa 6ebd 8326 143d cf6b ad3d 140f 98bd
00000120: 01da 07bd ab68 0ebe 6036 ba3c af5e b9bc
00000130: 8865 b23d 27e3 47be 7a34 053d db9c f6ba
00000140: d685 a53d d616 0abe f339 be3c 527d ccbb
00000150: 1376 08be ba97 9ebd 37a2 6e3b 83a7 3b3d
00000160: dc20 013d 5eac 0abe b5e6 0a3d f27a e03d
00000170: d229 7cbe 41a7 c93d 5bc3 193d 68a4 5b3d
00000180: d7af 1abe f163 15be e7d7 d4bc d81e 803b
00000190: 657e 403e 7585 4fbd 9db4 06bd e5a4 c7bb
000001a0: 503b 9dbd e5f7 d4bd f521 103c c55b e93d
000001b0: cdf5 ca3d 0251 0f3e 80c5 af3c 8415 073e
000001c0: e089 24bd 2f73 31bd 8e4f 2d3b b74e acbd
000001d0: 1c8c e3bd 3f19 c23e 3ea0 0e3d 5303 ef3a
000001e0: b604 a73d 1f96 033f 456f 023d 8a65 6d3e
000001f0: ac47 11be cd2b a93c 5c84 623c c292 493e
00000200: 20d3 143e de5c 023f b765 47bc cd65 2dbc
00000210: 8289 27be d27e 31b9 b142 45bc 698b a7bd
00000220: 3bde ab3e e61c b33e fe9a 8eb9 a9f9 a4be
00000230: d038 1dbd 4f83 2e3d 6ed4 cfbb befa 68be
00000240: b3e9 92bc 3da7 ba3c e14c 373d 2c40 003d
00000250: 9331 703c fa73 39bc 68de c2bc 4cdc 063d
00000260: d00f 50bb b2fb a83d 76e2 91bc 1925 093c
00000270: 5402 1fbe 0c84 073d 500a 163d bc2d c83d
00000280: 0976 4f3c f442 c43d 3b2f b33b dfc2 d3bd
00000290: 33e6 9cbe ba4b 3b3e 5516 79bd dffb 73bd
000002a0: 78da 463d 7a79 9bbe 980f 5b3c 36b8 843d
000002b0: 5d11 6e3c 90d6 b63e 7fda 9abd 7c40 303e
000002c0: b31f a2bc 65ff a1be 85d7 f33b 7782 723e
000002d0: c374 283d 96ec 193e f90a 0d3d 5597 7a3e
000002e0: 32c2 003d 4cc7 8ebe 97e9 dfbc 6689 2a3e
000002f0: c286 f83d f11f 74be 7305 c5bc fc5d 4f3e
00000300: 20d0 d8bd e805 30be 9c64 ad3b d2fb ddbd
00000310: ab5b f33d d9e8 9abe 14b2 2e3d 8019 c5bd
00000320: 1d67 9abb 6783 12be ec5b 813c 33d7 d4bd
00000330: d193 c23d d84b 3fbc 4155 a43c d7eb e0bd
00000340: e986 bbbc f4c2 bebd ace7 8cbd a426 d4bd
00000350: a7d7 1c3e 0a8c f23e 84c1 c5bd 2221 ebbd
00000360: 201b 10bd 603f 44be 4cdb 9a3d b822 57bd
00000370: 0b1d 273e b8f1 59be 70e7 8e3d e54a f0bd
00000380: a362 213d cd30 4dbe 10e6 32bd 52fc 86bd
00000390: 3866 de3c 2192 d0bd 38d4 94bd 3f82 3dbd
000003a0: a718 3bbd aa90 8ebe 263a ef3b 8abf 113d
000003b0: 5b4a 79be f1bc 253e e68b 343d 95d8 f53c
000003c0: 5668 d1bd 87c9 2dbe 5571 a7bc 5b46 98bd
000003d0: 4ef5 703e d41a 32be 90b4 133d 05c6 4c3c
000003e0: 8d0b a3bd e585 35be c7b0 7cbc c42c 33bc
000003f0: c7fd fd3d 5a5f 033e 0148 533d 4252 1e3c
0.022369508 0.2940056 -0.044282492 0.031386252 -0.2891349 -0.3395502 0.0043889675 -0.066654116
0.010284147 0.23548035 0.011557162 0.08186423 -0.1621626 -0.45978963 -0.03837619 0.109202124
-0.014452742 0.41294092 -0.020857744 0.10725874 -0.08717229 -0.40995303 -0.05624939 0.15378314
-0.07057669 0.3646588 -0.003908655 -0.24761887 0.32953054 0.010615388 -0.014658257 -0.17473216
0.02168341 0.30633742 -0.022424253 -0.2867132 0.13426948 -0.06422793 0.04572781 -0.23813422
-0.09303918 0.14196864 0.012160135 -0.09831288 0.08225288 -0.17461762 -0.05305789 -0.035476785
-0.028800845 -0.16863358 -0.031926088 -0.11140285 0.27636296 -0.043088686 -0.08281701 -0.04444795
-0.03183877 -0.16288826 -0.012351028 -0.088491976 0.14655764 -0.016485903 0.016730122 -0.038154777
0.011542071 -0.2509776 0.0071542733 -0.010452215 -0.058344226 0.03616954 0.084678285 -0.07424751
-0.03316689 -0.13907115 0.022731006 -0.022628156 0.08710772 -0.19520245 0.03252075 -0.0018815057
0.08082168 -0.13485274 0.023220992 -0.0062405253 -0.13326292 -0.07743783 0.0036412606 0.04581405
0.031525478 -0.13542315 0.033911426 0.1096095 -0.24625328 0.09846354 0.03753982 0.053623587
-0.1510614 -0.14588906 -0.025981857 0.003909927 0.18798216 -0.050664384 -0.03288709 -0.006092655
-0.076773286 -0.10398845 0.0087971585 0.11394457 0.09910164 0.13995746 0.02145648 0.13191801
-0.04017055 -0.04332274 0.0026445123 -0.08413451 -0.11110708 0.37909886 0.034820788 0.0018235244
0.081551954 0.5140094 0.031844396 0.23183265 -0.14187497 0.020650769 0.013825502 0.1968489
0.14533663 0.50922954 -0.012170247 -0.010583353 -0.16361049 -0.0001692728 -0.012039826 -0.08180887
0.33567986 0.34982985 -0.0002719983 -0.32221726 -0.03838426 0.042605694 -0.0063424623 -0.227519
-0.017933702 0.022784824 0.04475105 0.0313112 0.014660257 -0.011319155 -0.023787692 0.032924935
-0.0031747706 0.08251132 -0.01780818 0.008370661 -0.15528232 0.033084914 0.03663093 0.09774348
0.012662419 0.09583083 0.005468277 -0.10339903 -0.30644378 0.18290606 -0.060812313 -0.059566375
0.04854819 -0.30366117 0.013370417 0.06480448 0.014530507 0.35710573 -0.07561206 0.17212099
-0.019790506 -0.31640163 0.0074414634 0.23682581 0.041126978 0.15031657 0.034434292 0.24471791
0.0314352 -0.27886426 -0.027333064 0.16653976 0.12135078 -0.2384031 -0.02405045 0.20250696
-0.10586572 -0.17189753 0.0052915346 -0.108390465 0.11882719 -0.30255774 0.042650297 -0.09624004
-0.004711999 -0.14307939 0.015790902 -0.103926085 0.0950085 -0.011675797 0.020060183 -0.10982483
-0.022891479 -0.09314528 -0.068801254 -0.103589326 0.1531664 0.47372466 -0.09656051 -0.11480929
-0.03518212 -0.191648 0.07561359 -0.052523345 0.16319673 -0.21283615 0.06977737 -0.11733035
0.039400708 -0.20038147 -0.043676436 -0.06591095 0.027148351 -0.10184122 -0.0726704 -0.04626679
-0.045677807 -0.27844745 0.007300633 0.035583057 -0.2434477 0.16185357 0.04407873 0.0300105
-0.102249786 -0.16971408 -0.020439783 -0.07435294 0.23531076 -0.17393047 0.03606087 0.012498383
-0.079611875 -0.17726858 -0.015423006 -0.010935966 0.1240192 0.12829342 0.05158234 0.0096631665

fc1.bias f4 [256]
00000000: 234d 763d 426f 40be a8d3 8c3d 40b3 46bd
00000010: 9285 74bd f8b8 c0bd 0099 89bc 16a8 473e
00000020: 7f9f 3c3e 2141 76be 9796 23be 930b 1fbd
00000030: f7f1 853e 8070 883e bee9 4a3e d1ce 373d
00000040: 0252 513d 895a cbbd 83f5 013d cf63 d93d
00000050: e46a 85be 1bd7 2a3e fe57 eabd 83b3 b8bd
00000060: 2b16 843e 77b9 24be d7ec 923d da38 78be
00000070: 662d 53be 8869 fb3d d696 da3d 1ce2 ea3d
00000080: 4f3b 54be 1057 563e ba12 dcbd fff2 37bd
00000090: 9515 2e3c 80a8 823d b0ec 18be 7238 8d3e
000000a0: fc61 f83c 8fc0 2fbe f5a3 6dbe 13af 3bbb
000000b0: e4d4 573e 7058 b2bd 33ce 0d3e a432 193d
000000c0: 0c59 383e 40dc 793d 3b2a 7f3e 214e 08be
000000d0: 208f 923e 1bb9 55be 555c 913d 0537 ffbd
000000e0: 11e5 ffbd fea3 163e 1dc6 ba3d dc35 093e
000000f0: 866f 9e3e ffdb 623d 4dc6 173e 37f3 e1bd
00000100: 989c 923c cb8e 553e 82bd 183d ea8b aebd
00000110: 806f 553e 0795 79bd 6395 bb3d 9676 06be
00000120: dee4 163e a570 5f3c 997e 83be 6bdc ff3c
00000130: 30d4 a23d 3f74 083e 123c 48bd 27c1 f2bd
00000140: 608f cabd f1b5 e13d 5155 0abc 286a 0f3e
00000150: a53c 573a 5dc5 d3bc 60bb c33d 040c 883d
00000160: cf61 283e a8ac 9dbc 5ab1 a2bd ea1e 8f3e
00000170: 8fa6 2f3d f4f5 173e 8ffd 503e 191b 573d
00000180: d6b9 483e 406d f5bd 16d8 40be 8526 453e
00000190: 7d32 bb3d 696b 883d b232 943a d65b a2be
000001a0: 218d 333d eff0 2e3e e5d2 4f3e f2ff 90be
000001b0: 859f 4dbc 4528 bebc 7951 a33d 9fa3 783e
000001c0: a34a 6abd 5aab 593e 4ce8 04bd 65d8 65be
000001d0: 0b83 7b3d f3c7 e63d b2c4 a1be da11 563e
000001e0: aadd e93d 3200 c73d 81a9 17be 688a e6bd
000001f0: 0f6f 3fbe c1c4 6c3e 7759 e7bc 47ec 25bd
00000200: 3fab 4f3d 01ba 673d 3ff3 083e 6b9b 80be
00000210: a8d7 2f3d 9e93 183c e283 9d3c 1933 63be
00000220: 3ffc cb3d feef 923e d5bf 8f3e 2f7b 393d
00000230: 87b4 dabd 2e0c 7c3d f0fb 7a3d 2e29 3abe
00000240: 39cb a1bd c16c 87be bb10 27be 3746 9bbe
00000250: 59a3 973d c4d8 b73e c423 2ebe b06a 8fbe
00000260: 9625 08be cc96 723d f64e e23d 244c e23d
00000270: 52c8 39be e7e4 bebb 8c58 a53d fd2a debc
00000280: f443 d1ba eab4 153e d065 d33d d7e1 d0bd
00000290: d870 813e 9096 703d c4e0 733d bf7b a4bd
000002a0: dce1 2f3e d20e 153e ff80 7a3d 15dc ff3c
000002b0: c503 30bd dae6 3abd eb01 b8bd fda7 d03d
000002c0: e653 8ebe e31b 823d 90c2 4bbe be80 aabd
000002d0: bb74 3fbd 624e a03d 73f8 2e3c fdfa 34bb
000002e0: 032c 2b3e 9d07 443e bdc8 4d3e c942 37be
000002f0: 339c 893e 8e26 d33d 13a7 a2bc a682 90ba
00000300: a271 f73d dc80 c0bd 2d42 66be f774 40bb
00000310: f301 61bd aa46 cdbd fc22 aaba 9684 ccbe
00000320: 4a77 e9bd b0d3 e83d cbac 623c 6de1 b93b
00000330: fbae 1bbe d38a 9cbd 9f15 8dbd 1a70 3c3d
00000340: 740b 803d 1537 84be 4ae9 22be 59c5 723e
00000350: 6f35 a93d ed76 88bd f859 19bb d4ae 05be
00000360: aee2 bc3d 9844 37bd e54d 873d 1bd0 07bd
00000370: 8a0f 3bbe 47bd 4e3e 009d 893e 137b 963c
00000380: f3a2 7f3e a0ba 9b3e c5ee 3a3d 77f4 843e
00000390: 1cdf d33c 18a9 833e 1feb a03d 4951 1b3e
000003a0: 3826 903d ba4c 12be fdbf b63d 93a7 e93d
000003b0: 7bf0 f73d ddc8 ef3d e486 0b3e f644 05be
000003c0: 8bb6 1a3e 559c f4bb fe33 18bd 1833 8fbd
000003d0: 2ae7 3a3e c0dd 813c 2af7 bf3c 3c1d 49be
000003e0: c3c0 ff3d 7422 20be 7eca 25be 338b a93d
000003f0: c774 913e 176c 2f3d 0e51 173e a1f3 3ebe
0.060132157 -0.18792441 0.06876308 -0.04851079 -0.059697695 -0.0941028 -0.016796589 0.19497713
0.18420218 -0.24048282 -0.15975414 -0.038829397 0.26161167 0.2664833 0.19815728 0.04487497
0.0511036 -0.099293776 0.03172828 0.1061474 -0.26058114 0.16683619 -0.114425644 -0.09018614
0.25798163 -0.16086374 0.0717408 -0.24240437 -0.20622787 0.12275988 0.10673301 0.11468908
-0.2072575 0.20931649 -0.10745759 -0.044909474 0.010625263 0.06379795 -0.14934039 0.27582127
0.03032016 -0.17163299 -0.23207076 -0.0028638288 0.21077305 -0.08708274 0.1384819 0.03740181
0.18002719 0.061001062 0.24918453 -0.13311054 0.2862482 -0.20871393 0.07097689 -0.12461666
-0.12494863 0.14710996 0.09119818 0.13399452 0.3094446 0.055385586 0.1482174 -0.11032718
0.017896935 0.20855252 0.037290104 -0.0852278 0.20843315 -0.06093314 0.09159353 -0.13131174
0.14735743 0.013637696 -0.25682524 0.031233033 0.07950628 0.13325594 -0.048885413 -0.11853247
-0.09890628 0.11021031 -0.008443193 0.14005339 0.0008210636 -0.025850946 0.09557223 0.06642917
0.16443561 -0.019247368 -0.079439834 0.27953273 0.042883452 0.14839917 0.20409225 0.052516077
0.19602141 -0.119837284 -0.1883243 0.19252975 0.09140489 0.06661112 0.0011306612 -0.3171069
0.043835763 0.17084096 0.20295294 -0.2832027 -0.012550239 -0.023212561 0.07974524 0.24281166
-0.057200085 0.21256772 -0.032448098 -0.22445829 0.06140427 0.11268606 -0.3159538 0.20905247
0.11419232 0.09716834 -0.14810754 -0.11256868 -0.18694709 0.2312193 -0.028240902 -0.040508535
0.050700422 0.05657387 0.13374041 -0.25118575 0.042930275 0.009312538 0.019227926 -0.22187461
0.099602215 0.28698725 0.28076044 0.045283493 -0.10678964 0.061535053 0.061275423 -0.18179771
-0.0790009 -0.2645016 -0.16314976 -0.30327007 0.07404203 0.35907567 -0.17005831 -0.28011084
-0.13295588 0.059225842 0.11050217 0.11049679 -0.18142822 -0.005825627 0.080735296 -0.027120108
-0.0015965686 0.14619794 0.103221536 -0.101993255 0.25281405 0.058737338 0.059540525 -0.08031415
0.17176002 0.14556435 0.061158177 0.031232873 -0.042972345 -0.045630313 -0.08984741 0.10188291
-0.27798384 0.06352975 -0.19898438 -0.08325337 -0.046742182 0.0782745 0.010679352 -0.002761542
0.16716008 0.19143529 0.20096107 -0.1789657 0.26876983 0.10310088 -0.019855058 -0.0011025264
0.120822206 -0.09399578 -0.22486182 -0.0029366591 -0.0549335 -0.10023244 -0.0012980397 -0.39944905
-0.11399706 0.11368501 0.013835142 0.005672625 -0.15203469 -0.07643666 -0.068888895 0.046005346
0.062521845 -0.25823274 -0.15909305 0.23708095 0.08262145 -0.06663308 -0.0023399573 -0.13054973
0.09222923 -0.04474315 0.06606654 -0.03315745 -0.18267646 0.20189391 0.26877594 0.018369233
0.24964504 0.3041582 0.045637865 0.25967762 0.025863223 0.25714946 0.07857346 0.15167727
0.0703854 -0.14287081 0.089233376 0.11408915 0.12106415 0.117082335 0.13625675 -0.13014588
0.15108697 -0.0074649253 -0.03715896 -0.06992167 0.18252245 0.015852809 0.023433287 -0.19640058
0.12487938 -0.15638143 -0.16190526 0.08278503 0.28409407 0.042827692 0.14777014 -0.18647625

fc2.weight f4 [2, 256]
00000000: ea5b 7b3e 4cc2 643e 371a 27bd 4077 17bd
00000010: b6ac 57bd ff98 20bf 4123 c4bc 576a f63d
00000020: 16c7 17be b96f 0ebe 5bb5 f9bd 85d4 d73d
00000030: 1fa2 d83d a6ca df3d e213 bdbe 86df aebd
00000040: 9fca 183e 4778 39bd 27c6 5b3d 0ee1 74bd
00000050: cbd4 c33e e739 60bf 423f 1abf 47b3 d5bc
00000060: 55f2 243e 48c3 52bd 41fd 3c3e 30d4 aabb
00000070: 5ccd c0bd 4fb8 edbd 0986 f1bd ffa0 5fbd
00000080: 0d30 d63e f0d7 093e 780d 8dbd f8d7 ebbc
00000090: a01b 173f afdd de3d 5075 ecbc fc9d 9f3e
000000a0: a668 c7bd 545f 5fbd ca81 843d 4b43 9cbd
000000b0: 14fb e93d fcce cbbd ff24 0fbd 01de 38be
000000c0: fd1c 45bd 75c6 2c3e 02c9 7abd fd16 bfbd
000000d0: d62c 11be 342b 683e 5b0f 363d 362e 4a3d
000000e0: 2684 b4bd 2243 d9bd f90a 2c3d 288f 2d3d
000000f0: 9ce3 873d d1d5 d53e 46ec 043e a651 a53c
00000100: 219f 573e 1d27 8d3d c191 d8bd a0bd 16be
00000110: d014 15bf d695 473d 4b1c c9bd 7bda 693e
00000120: 7a05 17bd 53bc df3d 53e7 c7bd f518 40be
00000130: 443e 2dbd eb19 293b c1ef 253d 5330 b33d
00000140: 1306 0dbd 0953 c43c a255 1e3b f946 8fbd
00000150: abf6 473e fbae b63e b484 e4bd 1266 48be
00000160: 7724 4a3d e501 bcbd 51e7 69bc 7233 7fbc
00000170: 9d97 9ebd 4fec c33d 8424 d13c 6ff6 7a3e
00000180: 38da a63d c724 33be 8730 efbd 8347 b6be
00000190: 669b 773e 9e9d ac3c fb4d 1abe 134f 60be
000001a0: 4b5a 0c3e 6903 d23c 992d dabd 49dc 3ebe
000001b0: 96eb 6a3e c33a 66bd f3f8 ce3c ce27 e0bd
000001c0: 6bb9 23bd bd25 e13d 0012 60be b36e 89bc
000001d0: 6d3f cbbd 26b6 b2bd 4300 5b3d 635e ffbb
000001e0: 218d 33be 60f4 8dbd 794f c3be 25ab d83e
000001f0: 5356 ec3c bcd0 3c3e 4579 10be 7861 183e
00000200: 0b1d b1bc 6560 2f3e 8354 ba3d af31 2f3e
00000210: e711 a8bb 2bc2 113e f296 8fbd 6a2a 103d
00000220: 8d6d 92bd 3ce0 bfbe f9d6 283e affe dfbd
00000230: 0783 a8bd 3b84 113d 3594 2bbe 47b8 efbd
00000240: c5b4 a3bd 7ea3 9abd 8c70 fabc 0f83 ddbb
00000250: 41e1 dabd 4c56 553e 0550 d9bc b506 72be
00000260: 2a83 4bbe 797f a8bd 5d28 46be 5ae7 723d
00000270: a961 abbd 8845 2bbd 7537 8cbd 4da6 01bf
00000280: 49e6 95be 835d 863d ed08 2dbe 4ae2 0ebd
00000290: a00b 8b3d 7c15 053d 09b6 8f3d a616 c03d
000002a0: 1b2d 993e 1047 76bf 3e96 353e fc43 0f3e
000002b0: 2fee bebd 8199 06be 338a 533e 6492 453e
000002c0: c9bd 823e 6224 b43d 4b65 553c 6e3b cf3d
000002d0: 8921 2abe 94cc 6a3e cf0c ccbd b9e0 7cbd
000002e0: 1e4a dbbd 42f5 fe3d 26b1 103e fc2a c8bd
000002f0: 8ed1 883d fe5e 8b3c 6a20 5e3e c86b 8d3d
00000300: a6fb 6dbd 8ce7 4c3e b863 89be 46fa f1bd
00000310: 492e be3d d24e 413d 8621 a4bd 761a 7b3e
00000320: 19fb 19bd bcc4 e93d 9f28 153e b88e ebbd
00000330: 1871 223d 5282 00bc dac6 fa3d 469d ef3d
00000340: 04db 5abe 8226 8ebe d26a 733e 60cb 70be
00000350: 3bb5 bbbd 3b0d 5abd f639 0ebe 6064 37bd
00000360: dcfb 17be a077 d03c a04e aa3d 8278 2b3b
00000370: 4902 263b 4e9f 0e3d 05dc 6f3d 0420 043e
00000380: 71b5 843d 53e7 4c3e 2694 f5bd 222c e23d
00000390: 9abe e3bd 6c36 bb3d b35b d23c f068 71bd
000003a0: 0034 0fbe ae95 313e 6512 27be 742a 293e
000003b0: fd8d 01be 530d e63e eb46 6a3d e627 f2bd
000003c0: c827 1d3e 1658 c0bd 481f 64be 87a9 1dbf
000003d0: 3e83 29bd 1ef9 283e c34f 1cbc 2733 acbd
000003e0: 4f23 023d feb3 dd3c e034 633d 97ed 92bd
000003f0: 6d05 e5bd 4e42 623e 849a 0b3e a064 34bd
0.24546781 0.22339743 -0.040796485 -0.03697896 -0.052654944 -0.62733454 -0.023942592 0.120320015
-0.14822039 -0.13909806 -0.12192794 0.10538582 0.10577797 0.10927324 -0.36929232 -0.085387275
0.14921044 -0.04528072 0.05365577 -0.05978494 0.38248286 -0.8758835 -0.60252774 -0.026086463
0.16108067 -0.051455766 0.18455984 -0.005213283 -0.09414169 -0.1160742 -0.11793143 -0.054596897
0.41833535 0.1346128 -0.068873346 -0.028789505 0.5902653 0.108821265 -0.028864533 0.3117522
-0.09736757 -0.05453427 0.06470068 -0.076300226 0.114248425 -0.099515885 -0.03494739 -0.18053438
-0.04812335 0.1687258 -0.061226852 -0.093305565 -0.1417726 0.2267273 0.044448238 0.049360476
-0.08814268 -0.10608508 0.04200265 0.042372853 0.0663521 0.4176469 0.12980756 0.020180535
0.21056797 0.06892226 -0.10574675 -0.14720774 -0.5823488 0.04872688 -0.098198496 0.2283725
-0.036870457 0.10924592 -0.097609185 -0.1875952 -0.04229571 0.0025802802 0.04051185 0.087494515
-0.03442962 0.023965375 0.0024159928 -0.06995959 0.1952769 0.35680375 -0.111581236 -0.19570187
0.04935118 -0.09180049 -0.014276342 -0.01557623 -0.07743762 0.09566557 0.025530107 0.2450807
0.08147091 -0.17494498 -0.11679178 -0.35601434 0.24180374 0.021071251 -0.1506881 -0.21905164
0.13706319 0.025636392 -0.10653228 -0.1863872 0.22941431 -0.056208383 0.025265193 -0.10945092
-0.03997175 0.10993526 -0.21881866 -0.016776418 -0.09924207 -0.08726148 0.053467046 -0.007793234
-0.17534305 -0.069313765 -0.3814657 0.42318073 0.028849756 0.18439001 -0.1410876 0.14880931
-0.021620294 0.17126615 0.090981506 0.17108797 -0.0051290873 0.14234225 -0.070112124 0.0351967
-0.071498014 -0.37475765 0.16488256 -0.10937249 -0.082281165 0.035526495 -0.16755755 -0.1170507
-0.079934634 -0.07550715 -0.030571245 -0.006760008 -0.10687495 0.20833701 -0.026527414 -0.23635371
-0.19874254 -0.082274385 -0.19351335 0.059302665 -0.083682366 -0.041814357 -0.06846515 -0.5064438
-0.29277256 0.06560805 -0.16897936 -0.034883775 0.06789327 0.032491192 0.07017142 0.0937932
0.29917225 -0.9620218 0.17733094 0.13990778 -0.09322774 -0.13144495 0.20658188 0.19294125
0.2553542 0.08796002 0.013024638 0.10118757 -0.16614355 0.22929603 -0.099633805 -0.06173775
-0.10707496 0.12449123 0.14130077 -0.097738236 0.066805944 0.01701307 0.21692052 0.06905323
-0.05810132 0.20010203 -0.26833892 -0.11815314 0.09286172 0.04719431 -0.080142066 0.24521813
-0.03759298 0.11414477 0.14566277 -0.11501831 0.039658636 -0.007843571 0.12244959 0.116999194
-0.2137261 -0.27763754 0.23771217 -0.23515081 -0.09165426 -0.053235274 -0.13889298 -0.04477346
-0.1484217 0.025447667 0.08315778 0.0026164358 0.0025330952 0.034819894 0.058559436 0.12902838
0.0647992 0.20010118 -0.11991148 0.11043574 -0.11120339 0.091412395 0.025678491 -0.058937967
-0.1398468 0.17342255 -0.1631561 0.16520101 -0.1265182 0.4493204 0.05719654 -0.11824016
0.15347207 -0.09391801 -0.22277558 -0.61586803 -0.041384928 0.1650128 -0.009540501 -0.08408194
0.031771954 0.027063366 0.055470347 -0.07174223 -0.111826755 0.22095606 0.13633162 -0.044041276

fc2.bias f4 [2]
00000000: 4e24 783d 1e71 2abe
0.060581498 -0.16644713
